godot_rl_agents-main/BallChase/policy.pth (torch, 49726 bytes, 12 tensors)

log_std f4 [2]
000000 25 33 1e bb a5 ba 0e bc
       -0.0024139371 -0.008711492

mlp_extractor.policy_net.0.weight f4 [64, 21]
000000 07 f9 29 bd 21 10 1b 3e 48 e8 74 be 36 52 9d be
       -0.041497257 0.15142871 -0.23916733 -0.30726784
000010 f5 74 11 3e a4 1e 13 3e 26 93 a1 3c 29 8b 22 bd
       0.14204772 0.14367157 0.019723486 -0.039683495
000020 74 a6 c6 bd e8 5a 13 3c a4 17 4c 3e df 63 21 bc
       -0.09699717 0.008993842 0.19930893 -0.009850471
000030 75 7d 12 be 8d 38 30 3d de 4a 6b be 16 a3 8a 3e
       -0.1430567 0.04302268 -0.22977778 0.2707755
000040 32 d1 9e bd 5d 43 a5 be 72 8f 9b 3e 9c 33 e8 bb
       -0.077547446 -0.32277957 0.30382878 -0.0070862304
000050 e4 42 7a 3e 8d 6c 98 be 64 0e 35 3e 0f 16 bd bd
       0.24439579 -0.29770318 0.17681271 -0.09232723
000060 4f 39 64 3b 5b f0 19 be e3 7a a3 3c 13 66 8d 3d
       0.0034824198 -0.15033095 0.019956058 0.06904235
000070 39 59 c4 3e 54 2a ab 3d 11 c5 c4 bd 15 5c d1 bd
       0.3834932 0.08357683 -0.096079 -0.102226414
000080 70 d5 4b 3e 96 ad 92 bd 75 85 7f 3d 25 31 8c be
       0.19905639 -0.07162015 0.062383134 -0.27381244
000090 70 6c 8a 3e 35 8b 12 3e 62 51 aa bd 2c 19 14 be
       0.27035856 0.14310916 -0.08316304 -0.14462727
0000a0 f0 66 76 bd 56 07 1e 3c 2f 01 3e 3e 7b ef 0e bd
       -0.060156763 0.009645304 0.18555139 -0.034896355
0000b0 3c 9f b1 3d 3e ce 6a bd 5b 9c ba 3d 00 93 56 be
       0.0867295 -0.057325594 0.09111854 -0.20954514
0000c0 68 b9 57 be e0 55 0a be 36 e4 52 3e 05 7a 2f 3d
       -0.2106682 -0.13509321 0.20594868 0.042840976
0000d0 51 c6 33 bd c1 01 13 bd 42 a8 b1 3d 94 a2 a3 3e
       -0.0438903 -0.035890345 0.08674671 0.31959975
0000e0 c2 a8 18 3e da 4e 15 be c7 5c 87 bb b6 a1 c9 bc
       0.14908126 -0.1458086 -0.004130933 -0.024613243
0000f0 e5 ee 15 be 6e 54 aa 3e b7 3e 18 3d 8a 14 2d bd
       -0.14641912 0.3326754 0.037169185 -0.042255916
000100 b8 01 37 3e 9b b8 12 3d 4c 46 17 be c0 54 b4 bc
       0.1787175 0.035820585 -0.1477291 -0.022013068
000110 78 76 a1 3d 7c f6 a0 bc 42 f4 83 3d 39 2f 70 be
       0.07883924 -0.019648783 0.06443073 -0.23455514
000120 93 43 22 3e 88 f2 81 be 1a 79 c2 3d c8 7c 54 be
       0.1584609 -0.2538035 0.094957545 -0.20750725
000130 29 ee d7 3a 1e 6c 3e 3e 85 83 00 bd 02 d0 8c bd
       0.0016474175 0.18595931 -0.031375427 -0.06875612
000140 f5 6d 19 be de f2 c6 bd 4a 73 15 3c c1 67 53 bd
       -0.14983352 -0.09714292 0.009121725 -0.05161262
000150 64 5b 00 bf 56 27 a1 3e fb 39 43 bd dc ab 55 bd
       -0.5013945 0.31475323 -0.047662716 -0.05216585
000160 9a 83 3f be 1d 20 36 be 80 04 5a 3c 1a c1 4d be
       -0.18702546 -0.17785688 0.013306737 -0.20093194
000170 a7 9b 4e be c0 de 74 be 03 ba ea 3d 8e dd 87 bd
       -0.20176564 -0.23913097 0.1146126 -0.06634055
000180 40 cc 4b 3d 33 cc 25 be 70 33 28 bd ca 2b 96 3d
       0.049755335 -0.16191177 -0.04106468 0.07332571
000190 c6 8a ed bd 23 8c 26 be 0f 8f d8 3d 5d a8 0d 3f
       -0.115987346 -0.16264395 0.10574161 0.55335027
0001a0 a4 10 03 3e c6 ed 58 3d e0 d0 b6 3d be 30 76 3e
       0.12799317 0.052961133 0.089265585 0.24042031
0001b0 bb dc c0 3d ac 86 29 3e 04 dc be bd 7a 5a d0 bd
       0.09417101 0.1655528 -0.093193084 -0.10173507
0001c0 09 31 bd 3d 10 78 a0 bd f8 f9 64 be 76 6a df bd
       0.09237868 -0.078354 -0.2236098 -0.10908978
0001d0 80 9e 46 be 8e 68 a9 3d 84 5d 44 3e d9 da 17 bd
       -0.193964 0.08271895 0.19176298 -0.037073944
0001e0 a9 86 13 bd 4f 73 22 3e 81 13 3e bc bd 6d 15 be
       -0.036017094 0.15864299 -0.01160133 -0.14592643
0001f0 5f 24 d2 bd 78 97 5a 3e 5a ee 2e be 65 ff 1f bd
       -0.102608435 0.21346843 -0.17083111 -0.039061923
000200 72 30 b3 3c c1 c8 5a be 25 d0 75 bd 05 d3 80 3c
       0.021873686 -0.21365644 -0.060012955 0.015725622
000210 51 d3 c1 be 33 2b f7 bc dd fa 99 3c 0d e5 49 3d
       -0.37856534 -0.030171966 0.018796379 0.049290705
000220 2e 58 4e 3d b4 de 9a be cb 19 34 3e c2 8a c2 be
       0.050377063 -0.30248034 0.17587964 -0.3799649
000230 0d b6 0b 3e 7f 42 13 be 60 01 48 3e a1 dc 2a 3c
       0.13643666 -0.14380835 0.19531775 0.010428579
000240 92 f9 2f 3e 28 17 2c be b8 ce 71 be f7 50 1e be
       0.17185047 -0.16805708 -0.23614013 -0.15460573
000250 83 bd 7e 3e 09 35 65 3c 33 07 4d bd 5c 43 cf be
       0.2487698 0.013989695 -0.050055694 -0.4048108
000260 dc fb 77 be fd b7 f6 3b 64 20 0a 3d 30 96 b2 3e
       -0.2421717 0.0075292573 0.033722296 0.3488021
000270 9d 57 9d bb cc 73 2b 3d 6e 00 76 be b9 0c 24 3d
       -0.004801704 0.04185848 -0.24023601 0.040051196
000280 93 93 25 3e ac 9e 1a be ce db 8a be 29 ec 3c bd
       0.16169576 -0.15099591 -0.27120823 -0.046123657
000290 11 0f bf bd 37 b3 b8 3d a4 f8 63 be 96 f3 05 bd
       -0.093290456 0.090185575 -0.22262818 -0.032703005
0002a0 99 4b f6 bc 0b 23 6f 3e 44 66 6b be bc 90 80 be
       -0.030065345 0.23353212 -0.2298823 -0.25110424
0002b0 6e 1f a2 3d 73 29 3a 3b e0 42 52 3e ff f4 a6 3b
       0.07916151 0.0028406053 0.20533323 0.005095124
0002c0 12 70 76 3e 92 70 11 3d ac af c4 be 48 c4 4a 3e
       0.24066189 0.035507746 -0.38415277 0.19801438
0002d0 13 7c 03 3e ad 54 fb be 0b f3 f2 bd 05 e8 d4 bd
       0.128403 -0.4908804 -0.11862763 -0.10395817
0002e0 53 35 fe bb 37 92 15 3e 9b 5c 4f be 2c 47 35 3e
       -0.0077578216 0.14606558 -0.2025017 0.17702931
0002f0 7d 6d 35 be b5 a6 d8 3d ac 22 f0 3d a9 04 ae bd
       -0.17717548 0.10578672 0.11725363 -0.084969826
000300 d9 eb 84 bc bd 09 88 be 90 d1 aa bc 32 db 19 3c
       -0.016225742 -0.2656993 -0.02085188 0.009390639
000310 84 8a 3a 3d 38 b9 d2 3d b9 8f 2a 3e b6 d9 06 be
       0.045542255 0.10289234 0.16656388 -0.13168988
000320 eb 26 7e 3e fc 53 09 be 3e ed 76 be e1 36 4f be
       0.24819534 -0.13410944 -0.24113938 -0.20235778
000330 2d f1 58 3d b1 dc 51 3d 9f 76 35 be cb 0a 02 3e
       0.05296438 0.05123586 -0.17721032 0.1269943
000340 cf 2c 5a bd 38 2b b0 3e c4 ef f0 bd 52 0e 97 be
       -0.05326539 0.34407973 -0.11764482 -0.29503113
000350 c2 22 16 bd 8f 93 3d be 34 6f a7 bd d1 6a ee 3d
       -0.03665424 -0.1851332 -0.08175507 0.11641467
000360 a3 de 25 3e af 4f e8 bd a3 51 c2 bc 09 39 de bd
       0.1619821 -0.113433234 -0.023720568 -0.10850722
000370 59 53 e4 3d e7 e9 29 3e ca e5 05 3e d9 ca 0f 3c
       0.1114871 0.16593133 0.13075939 0.00877639
000380 a6 1b 14 bd eb 4d 11 be 3b cd ba 3c a2 a0 09 bd
       -0.03615918 -0.1418988 0.02280294 -0.033600457
000390 99 19 63 be 58 7d 67 be 47 93 62 3d 85 76 e0 3e
       -0.22177733 -0.22606409 0.055316236 0.43840423
0003a0 7b e4 ed 3d f7 76 92 be f8 9b 98 3d 11 09 32 be
       0.11615845 -0.28606388 0.07451624 -0.17386271
0003b0 b5 39 82 be 86 88 e8 bd 41 e0 f7 3d 4d 9b ed bd
       -0.25434652 -0.11354165 0.1210332 -0.11601887
0003c0 d0 8c 14 bd 53 dc ca 3e 92 91 ba 3d b5 64 f3 3d
       -0.0362671 0.3962122 0.091097966 0.11884443
0003d0 7e 7f bf bd c8 26 8d be 5a 41 0a 3d 71 51 fd bc
       -0.09350489 -0.2756865 0.03375373 -0.030922623
0003e0 29 81 38 3e 5a 7c 78 bd a9 5d d5 3d ce 3a d0 bd
       0.1801802 -0.060665466 0.10418255 -0.10167466
0003f0 c6 13 25 3e 48 6e 79 bd bb 9d 1c bd 7f 1c 72 bd
       0.16120824 -0.060896188 -0.03823636 -0.059109207

mlp_extractor.policy_net.0.bias f4 [64]
000000 66 ed 2d bb 4b 93 01 bc 1b 4d 5d bb 24 b4 cc 3a
       -0.0026539206 -0.007908653 -0.0033767882 0.0015617651
000010 99 29 a7 3b 0c 4d 2c 3c f6 ab 09 3c 0e e9 1a 3c
       0.0051013944 0.010516416 0.008402815 0.009454979
000020 db 66 97 bb 9b b9 82 bb 25 34 b6 bb 12 51 68 ba
       -0.0046204156 -0.003989411 -0.0055604153 -0.0008862178
000030 4c e1 83 bb a6 75 9d bb d2 a1 db bb ae f3 16 3c
       -0.00402466 -0.0048052846 -0.00670264 0.009213371
000040 60 85 05 bc 38 c7 5b 3c f3 73 02 bc 09 27 23 3c
       -0.008149475 0.013414197 -0.007962215 0.009958037
000050 27 e1 0b 3c 82 1b f2 3b be 55 2c 3c 5d 52 e6 3a
       0.008537567 0.007388533 0.010518489 0.0017572154
000060 1a f0 80 39 08 20 55 3b b2 84 25 ba 58 1b 29 3c
       0.00024592952 0.0032520313 -0.00063140236 0.010321461
000070 52 df fe 3a 96 3c a6 3b 15 12 37 3c 9c e8 b6 ba
       0.0019445217 0.0050731404 0.011173745 -0.0013954821
000080 68 63 29 3b 40 f4 16 bc 34 f0 3a 3b 2a d4 2c 3c
       0.0025846604 -0.009213507 0.002852452 0.010548631
000090 da 66 f2 3b a5 d1 2d 3b be dd 22 3c 53 75 ec 3a
       0.007397515 0.0026522663 0.009940563 0.0018040336
0000a0 da ea e4 3b c1 d9 b2 3a 7e 45 0a bc aa 76 21 3c
       0.0069860043 0.0013645218 -0.00843942 0.009854952
0000b0 1e bf 32 bc 8a 7d 88 3b 44 10 2b bc 8b 7c ba bb
       -0.010909824 0.004165356 -0.01044089 -0.005691116
0000c0 75 6f b6 3a 96 6f f0 3b c4 e8 19 ba a9 2f ae bb
       0.0013918715 0.007337521 -0.00058711716 -0.00531574
0000d0 40 90 00 3c 4b e5 09 3b c5 59 e6 3b 3c 14 47 3c
       0.007846892 0.002104121 0.0070297443 0.01215082
0000e0 5f 61 83 3a de 84 38 3b f0 42 b6 bb b1 5a 57 3a
       0.0010023526 0.0028155367 -0.005562179 0.0008215113
0000f0 c6 4b f6 3b aa 04 38 bc 0b 9b c8 3b 90 ab d3 bb
       0.007516357 -0.011231581 0.006121998 -0.006459661

mlp_extractor.policy_net.2.weight f4 [64, 64]
000000 ef 4a 9f bc c1 58 3e be 06 97 91 bd 18 4e 78 be
       -0.01944491 -0.18588544 -0.071088836 -0.2424854
000010 a7 6c 0e bd 91 6a 5f 3e 14 15 84 bd 2a b1 0f 3e
       -0.034771588 0.21817996 -0.06449333 0.14032426
000020 fe 3d 05 3e b9 4e 10 be 86 5e ba be 05 8f 44 be
       0.1301193 -0.1409253 -0.3640024 -0.19195183
000030 5a 40 a7 be 7d 64 91 3e 03 ab c1 3e 46 89 b8 be
       -0.32666284 0.2839698 0.37825784 -0.3604223
000040 70 5d 02 3e c4 41 d8 bd 5d 38 08 be 50 fd 38 3c
       0.12730956 -0.10559419 -0.13302751 0.011290863
000050 9a fc 81 3e d2 ab 40 be 69 7a 7b 3d d9 7c 3e bd
       0.25388032 -0.18815544 0.061396036 -0.046505783
000060 80 6a 14 3c 58 66 5a 3d 50 00 71 be 65 e4 d5 3d
       0.009058595 0.05332026 -0.23535275 0.104439534
000070 21 f5 cf 3d 1a 10 20 be 50 cc fe bc 5b 66 16 3e
       0.101541765 -0.15631142 -0.031103283 0.14687483
000080 c5 fa ca bd 5e 24 42 3e 1f 7a 0c 3e 99 33 35 3d
       -0.09911112 0.18959185 0.1371846 0.04423866
000090 a7 0e 0b 3d 2c 07 6c 3d 54 a5 86 3d e0 d0 83 be
       0.03394952 0.057624027 0.065745026 -0.25745296
0000a0 dc 7e 3b be 4d a9 2d be 65 5f b2 bd 91 9f ad bb
       -0.18310112 -0.16959114 -0.08709601 -0.005298563
0000b0 da 86 9f be 77 db dd be 20 e4 db 3d 3a e4 23 3d
       -0.3115757 -0.433315 0.10736871 0.040012576
0000c0 fd 6b 39 3d d2 07 5f 3e 31 ef fe bd 11 c0 09 3e
       0.045269 0.21780327 -0.12447966 0.13452174
0000d0 a1 cb 27 3d a8 ba e9 3c 3a 98 f9 3d a7 d8 a9 3d
       0.04096568 0.028531387 0.12187238 0.08293276
0000e0 f4 e5 09 3d c4 e7 81 bd 7c 9c 14 3e 79 cd 30 3d
       0.033666566 -0.06343034 0.14512819 0.043164704
0000f0 14 0f 7b 3e 17 74 cc be 25 89 10 bd 38 b6 25 3e
       0.2451747 -0.3993232 -0.03528704 0.16182792
000100 77 c0 2e be b7 a1 bc be 7f cc 74 be eb e2 b5 3b
       -0.17065607 -0.3684213 -0.23906134 0.0055507324
000110 7e 3e 82 bd a8 67 94 bd 29 97 83 3e 05 d8 a9 bd
       -0.06359576 -0.07246333 0.25701264 -0.082931556
000120 b0 9c 60 bd 0b be a5 be 18 46 e9 3d 0e fc 8a 3c
       -0.05483693 -0.32371554 0.113903224 0.016965892
000130 47 cb 82 bd 39 e6 17 be 27 41 25 3e 61 57 b4 3d
       -0.06386428 -0.14833917 0.16138135 0.08805729
000140 f6 6e 4c bd 57 55 38 3e b7 c2 19 3d 1b 3e 5b 3e
       -0.049910508 0.18001305 0.03753921 0.2141041
000150 9c 80 5f 3e c2 d0 64 be 71 20 7c 3d 36 ca 81 3c
       0.21826404 -0.2234526 0.061554376 0.015843492
000160 3c 0e 61 3e a3 44 e7 3c a6 dd 42 bd 0d 4e ad bc
       0.21978086 0.02823097 -0.04757466 -0.021155382
000170 bc bf c0 bd 28 fa 52 3e b6 53 b9 3e 85 c3 be bc
       -0.094115704 0.2060324 0.3619668 -0.02328659
000180 9b 56 9c 3e b1 20 73 3d e4 89 c2 bd 2b 97 e3 3e
       0.30534825 0.05935735 -0.09498957 0.4445127
000190 64 3d 8f bc 25 9d a7 be d5 a2 60 bd 20 2d 29 be
       -0.017485328 -0.3273708 -0.05484279 -0.1652112
0001a0 c4 70 2d be 64 41 b3 3b b5 ff 29 bd 5e ee 0a be
       -0.16937548 0.0054704417 -0.041503627 -0.13567492
0001b0 22 50 3b be 09 6c f0 3d c7 f7 98 bd e9 a8 6b be
       -0.18292287 0.11739356 -0.07469135 -0.23013653
0001c0 0f 76 ae 3e 95 ac cb bd 47 cc 84 bd 28 b7 6a 3c
       0.34074447 -0.09945027 -0.06484275 0.014325894
0001d0 a3 e8 47 3d d8 85 54 bd f7 2c ce bd 9e fa 9c 3b
       0.048805844 -0.051885456 -0.1006717 0.004790618
0001e0 a1 5b eb bb b0 f3 29 3e 2e 00 b7 3e 95 bf 98 bd
       -0.007182554 0.16596866 0.35742325 -0.074584164
0001f0 8a 5a 88 be 9a d1 69 3c 6d ed 49 3e 8d 97 aa be
       -0.26631576 0.014271164 0.19719477 -0.3331875
000200 f4 5b 36 3e 8c 31 93 bd d9 ca 01 3e 71 8d ac 3d
       0.17808515 -0.07187185 0.12675036 0.08425415
000210 fd 36 8f 3c f8 9d f7 3b bd e8 e2 bd f9 ea c5 bb
       0.017482275 0.007556673 -0.110795476 -0.006039974
000220 9d ad 92 bd 27 2e dd 3d aa 87 dc 3d 77 c3 5f 3c
       -0.0716202 0.107998185 0.10768063 0.013657442
000230 40 90 44 3e 88 af 2d be 96 45 89 3e fa 0e 22 3e
       0.19195652 -0.16961491 0.26810902 0.15826026
000240 64 2a ac 3d 89 19 4a be 41 e4 26 3e 39 a1 78 be
       0.08406523 -0.19736303 0.1629801 -0.24280252
000250 d9 30 13 bd d6 29 02 be 01 4a 72 be a8 9d 30 bc
       -0.035935257 -0.12711272 -0.23661043 -0.010779776
000260 5e ed c4 be 39 a0 60 be c7 94 2d be f5 9b 98 3d
       -0.38462347 -0.2193612 -0.16951285 0.074516214
000270 16 23 02 bd a9 b8 1e 3e ec 2e b1 3d c4 f6 c1 3d
       -0.03177174 0.1550013 0.08651528 0.09470895
000280 17 16 53 3d ba 70 52 bc ce 5c 2f 3d 96 0a 94 bd
       0.05153474 -0.012844259 0.042813115 -0.072285816
000290 68 17 a2 3d 45 25 4f bc 44 c7 e6 be 2b 44 90 3c
       0.07914621 -0.012643163 -0.45073903 0.01761063
0002a0 7b f0 a6 be 6e 35 64 3d 61 4b 6f bd ec 79 33 3e
       -0.32605347 0.055715017 -0.058421496 0.17526978
0002b0 ee 00 81 3e 9c 4c 0b be ed e5 75 be 5f 8c 85 3e
       0.25196022 -0.13603443 -0.24013491 0.26083657
0002c0 4a 99 6c be af b6 32 3e ef 06 88 3d da d6 a5 be
       -0.2310535 0.17452501 0.066419475 -0.3239048
0002d0 40 38 2e 3e a1 ed 51 be 19 72 d1 3d 0c 31 98 bd
       0.17013645 -0.20500804 0.102268405 -0.0743123
0002e0 07 db 81 3d 07 40 95 3d 12 c0 c6 3e 7f 44 d7 bc
       0.06340604 0.07287603 0.38818413 -0.026277779
0002f0 be 84 29 be 29 66 d5 be c3 c6 2c 3e e6 32 1c be
       -0.16554543 -0.41679505 0.16872697 -0.15253791
000300 5f 65 93 bc 08 cc 24 be f7 5f c0 bc 5e ba 2b be
       -0.017992673 -0.16093457 -0.02348326 -0.16770312
000310 03 c5 12 3e b4 6e 55 be 58 75 d9 3c a1 b8 22 be
       0.14332967 -0.20843011 0.026545212 -0.15890743
000320 18 5a 09 bd 6b 14 1b bc f3 d8 2c bd 9b a8 e1 bc
       -0.033533186 -0.009465317 -0.042199086 -0.027546218
000330 eb c6 aa ba 5c af b2 bd 3b 22 28 be 2a 39 69 3e
       -0.0013029253 -0.087248534 -0.16419308 0.22775713
000340 5f 1c 5b be 0f dd be be 5c b2 a1 3c 93 b0 9b 3e
       -0.21397541 -0.3727803 0.019738369 0.30408153
000350 f7 ba a9 3e 60 0f 26 3b d8 21 c1 3e f3 68 1a 3b
       0.33150455 0.0025338754 0.37721133 0.002356109
000360 7f fa 9b be 26 0c 11 3d 56 7b f8 3c ca 45 f4 bc
       -0.3046455 0.035411976 0.030332249 -0.029818434
000370 d7 f3 91 bd 99 a0 aa be f3 17 4e 3d 22 88 23 bd
       -0.07126587 -0.3332565 0.05031581 -0.03992475
000380 80 cc f9 3d 4c 3b 47 be 37 e9 6d 3d 25 9c e1 3d
       0.121972084 -0.19456214 0.05808374 0.1101611
000390 04 69 df be ff cd cc 3e ac b7 89 3c 5d a8 fe bd
       -0.43634808 0.40000913 0.016811214 -0.124344565
0003a0 f1 1e 19 be a9 a8 b7 3d 45 4a a3 3e 73 9b d0 bc
       -0.1495321 0.08967716 0.318926 -0.025464749
0003b0 46 51 54 3e 78 a5 9a bd c7 c4 f6 bc 33 2a 16 3e
       0.20734128 -0.07551092 -0.030123128 0.14664535
0003c0 e0 e7 6d 3e cb d0 8f bd 12 b2 16 3e 8a 93 29 3e
       0.23232985 -0.07022246 0.14716366 0.16560188
0003d0 38 a0 2b 3e ce 08 fe bd 17 cc 82 3e dd 9f 77 3b
       0.16760337 -0.12404023 0.25546333 0.0037784495
0003e0 35 7b 3d 3b f2 7d bd bd aa a9 7a be 4a 75 f7 3c
       0.0028912548 -0.09252538 -0.24478784 0.030207295
0003f0 58 1b c5 3d 6d 5e 3c be 8f 0e 15 bd 2c 8b 86 be
       0.09624356 -0.18395396 -0.036390837 -0.26278055

mlp_extractor.policy_net.2.bias f4 [64]
000000 cd fc 9e 3b 26 d2 27 3c ed 5d ea bb 75 9f 6e 3b
       0.0048519135 0.010242974 -0.00715231 0.0036410962
000010 f4 d5 cf 3a fd c1 3b bc 52 12 d0 3b 35 77 02 bc
       0.001585661 -0.011459825 0.00634984 -0.0079629915
000020 35 35 9d bb 3f b3 ec 3a 1a e5 d1 3b 69 a0 17 bc
       -0.0047976025 0.0018058791 0.006405485 -0.009254553
000030 41 0f 1b 3c 91 30 fe ba c0 83 87 3a ae 83 d9 bb
       0.009464086 -0.0019393136 0.0010338947 -0.006638012
000040 29 95 da bb 15 57 36 ba 0a 86 60 3a 0b 2c 1a 3c
       -0.0066706133 -0.0006955725 0.0008564895 0.009409915
000050 b4 a1 eb bb 9d 31 6d bb 63 13 17 bc 8c b6 eb ba
       -0.0071909074 -0.0036192902 -0.009220931 -0.001798348
000060 2e d5 ed ba f7 4c 26 3b a6 4f ff ba fa c3 a2 bb
       -0.0018145198 0.0025375464 -0.0019478693 -0.00496721
000070 5b 5b cc 3b 4c 1a 11 3c 14 9e 05 3c a9 4d af 3b
       0.0062364764 0.008856367 0.008155365 0.005349834
000080 28 9f ae ba a6 3d 8e 3b ad 5b 0e bc 1e 54 ba 3b
       -0.0013322579 0.004340845 -0.008688849 0.005686297
000090 c8 53 7e 3b a2 ae b9 bb 39 65 26 bc 2c 9e cc bb
       0.0038807262 -0.00566657 -0.010155969 -0.0062444415
0000a0 61 26 a5 38 2e 03 f1 3b 4f dd d2 bb 3f ad f5 bb
       7.874962e-05 0.0073551154 -0.0064350734 -0.007497459
0000b0 5a 7d a0 ba 0b 9b f7 3b c9 28 57 39 c7 4e ef ba
       -0.0012244389 0.0075563244 0.00020519191 -0.001825773
0000c0 fa 4e 01 3c 4c ef 20 38 1e 31 8f bb f2 ec 30 bc
       0.007892365 3.8369835e-05 -0.004369869 -0.01079868
0000d0 68 06 e5 bb 2b 9b 80 bb cd 70 0f bc ef 21 16 3c
       -0.006989289 -0.0039247475 -0.008754921 0.009163364
0000e0 92 0e 0d bc da d4 ca bb b8 27 1c 3c d3 ed e4 bb
       -0.008609431 -0.0061899247 0.009530954 -0.0069863587
0000f0 51 fe 1f 3b 3d 8d f3 3b a9 6a 27 3c df 3e 8d ba
       0.002441306 0.0074326084 0.010218301 -0.0010776183

mlp_extractor.value_net.0.weight f4 [64, 21]
000000 6f 89 e1 bc 1d b7 b9 3e a1 b1 91 bc 06 24 91 be
       -0.027531354 0.36272517 -0.017784895 -0.28347796
000010 1f 5f db bc 89 2d 12 3d aa 26 f9 3e fc 08 8e bd
       -0.026778756 0.035687957 0.4866231 -0.069353074
000020 d5 96 ea bc 26 c6 18 be 6f 27 d2 3c 16 10 73 3e
       -0.028636375 -0.14919338 0.025653569 0.23736605
000030 e3 69 06 bd 75 de 81 3c 81 bf 9f 3d 0e bb 92 be
       -0.032815825 0.015853146 0.07800198 -0.28658336
000040 85 f8 0a be b1 86 00 3e 96 fb 77 3d cd 85 22 3e
       -0.13571365 0.1255138 0.060542665 0.15871353
000050 36 96 ab be bb 16 5a 3e ff 80 82 bc 03 9d 4c be
       -0.3351304 0.21297733 -0.01593065 -0.1998177
000060 47 be 65 bd 42 9f 06 3e 5f 27 93 3e 6a 1b 47 be
       -0.056089666 0.1314669 0.28740975 -0.19444051
000070 21 2b 65 3e ca 3d 3c 3d 6b 8e e1 3d ee 18 76 be
       0.22379734 0.045957364 0.11013492 -0.24032947
000080 d4 f7 c2 3d 74 36 96 be 76 66 53 be 80 cc bb 3e
       0.09519926 -0.2933842 -0.20644554 0.3667946
000090 09 ef 97 bd 0c 7b f3 3d 72 db 2b 3d 0f a7 0a 3c
       -0.07418639 0.11888704 0.041957326 0.008462681
0000a0 5d d3 22 3e 8b fe 89 3e 73 14 6a bd 85 5b 65 3d
       0.15900941 0.26952013 -0.05714841 0.055995483
0000b0 f3 9f d1 bd 2a 9e 3b be ee 39 fc bd 7a c8 04 3e
       -0.10235586 -0.18322054 -0.12315737 0.129671
0000c0 9a e6 15 3e c0 a1 48 be c7 2d cf 3e 60 6a da 3b
       0.14638749 -0.19592953 0.40464613 0.006665513
0000d0 d2 fd 2a 3e 80 66 ba bd 93 12 a5 3e 8f a0 03 be
       0.16698387 -0.091015816 0.32240734 -0.12854217
0000e0 cb 59 bb 3d 3c b0 85 3e 14 20 5a bd 4a c5 2f 3e
       0.09147986 0.2611102 -0.05325325 0.17165104
0000f0 09 f1 b5 3c 57 74 9b bd c9 62 d6 3a 8d e1 34 3e
       0.022209661 -0.075905494 0.0016356345 0.17664166
000100 6d b8 a4 bb 4a 79 02 3f 33 ec b4 3d 07 0f 37 3e
       -0.005026868 0.5096632 0.08834114 0.17876826
000110 32 b9 53 be a6 bf 5a 3e 02 68 d6 bd ef a4 4f 3c
       -0.20676115 0.2136217 -0.10469057 0.012673601
000120 1c 28 88 bd 2e d9 b9 be 94 2b 11 be b4 88 30 3e
       -0.06648275 -0.36298507 -0.1417678 0.17239648
000130 11 2e 92 be 73 fb 06 be bf 6b 82 3e 7c 5c 27 3d
       -0.2855077 -0.13181858 0.2547283 0.040859684
000140 9d d1 39 3e 03 e7 32 be b4 6e 91 3d 08 96 0a 3e
       0.18146367 -0.17470936 0.07101193 0.13533795
000150 e3 68 3d 3e b6 66 10 3e 1b 59 a6 bd 8b 90 27 be
       0.18497042 0.14101681 -0.08122464 -0.16363733
000160 61 00 a8 bd c7 ce 2b bd e0 9a c9 bd 3a 73 2e be
       -0.08203197 -0.041945245 -0.09843993 -0.17036143
000170 5e 18 de bd 2e 56 99 3e 80 9f 54 be 8b d2 8b 3e
       -0.108444914 0.29948562 -0.2076397 0.2730907
000180 2b 03 5c 3e 9f 3d 8b be 6a 0d 8b 3d 48 d3 98 3d
       0.21485583 -0.2719545 0.06789668 0.07462174
000190 38 04 f8 3d 9f e4 0d be 31 56 d0 3c a4 9d 13 3e
       0.1211018 -0.13856743 0.025431724 0.14415604
0001a0 98 f3 c4 bc 84 0c 2d bd 67 ec dc bd 12 12 93 be
       -0.024041936 -0.042248264 -0.10787278 -0.28724724
0001b0 75 07 23 be fe b0 96 be 6f e1 88 be da 59 4f 3e
       -0.15920813 -0.2943191 -0.26734492 0.2024912
0001c0 d3 02 2f be f0 61 13 3e a5 eb d3 bc 31 e3 09 be
       -0.17090921 0.14392829 -0.0258692 -0.13465573
0001d0 b3 f4 b9 bc 11 32 ba bc 9f 62 51 3e ce 7f 41 bd
       -0.02269969 -0.022728952 0.20447777 -0.047241025
0001e0 e7 d0 6d bc 69 19 19 3e 48 44 f9 be df 3d a2 3d
       -0.014515138 0.149511 -0.48684907 0.07921957
0001f0 7c 97 ee 3d 67 97 15 3d 08 57 8b bc 3c 62 fb bc
       0.11649987 0.03652134 -0.017009273 -0.03068649
000200 c8 b9 a6 be f9 69 85 3e 66 3e 26 be f6 96 f9 bd
       -0.32563615 0.26057413 -0.1623474 -0.12186997
000210 13 0d 83 3e f1 63 80 3e 9b f1 88 be d6 bd ab 3d
       0.25595912 0.2507625 -0.2674683 0.08385818
000220 74 9a 21 3e 31 00 91 3e 63 64 1c bd e4 5b d1 bd
       0.15781575 0.2832046 -0.038181674 -0.10222605
000230 8a 7d c5 bc db 01 11 3e f2 9f b3 3d 45 24 93 be
       -0.024107713 0.14160864 0.087707415 -0.2873861
000240 a5 9f 36 be 4d 86 b3 bd 77 f2 b1 3c 19 e3 32 3e
       -0.17834337 -0.0876585 0.021722062 0.17469443
000250 a6 b4 11 3e ab 86 6c 3d 9f ea 81 bd 07 9b 7b 3e
       0.14229068 0.057745617 -0.063435785 0.24570857
000260 32 d6 79 3b 3a d6 fd 3d 7c d4 08 bd d6 dd 11 3e
       0.0038122055 0.12394376 -0.033405766 0.1424478
000270 23 59 6f 3e f9 dc eb 3d dd 93 a5 3e 1e cd 1b 3e
       0.23373847 0.115167566 0.32339373 0.15214965
000280 e4 dd 87 3e f8 18 7d be dc c7 2c be cb c0 4e be
       0.26536477 -0.24716556 -0.16873115 -0.20190732
000290 05 b6 4c bc 87 17 8e bd f0 2e b0 be 98 8c 52 bc
       -0.012494569 -0.06938081 -0.3441081 -0.012850903
0002a0 34 13 d0 3e b7 2e eb 3d 3c 9b 8b 3c 21 70 30 3b
       0.4063965 0.114835195 0.017041795 0.0026922303
0002b0 c5 8e 8e 3e 3a 3b 19 3e 25 e2 43 3c 8c cc c7 3d
       0.278433 0.14964 0.0119557725 0.09755811
0002c0 3a 0d f5 bd f8 94 17 3e eb ca e1 bc 03 40 b2 bb
       -0.119654134 0.14802921 -0.02756258 -0.0054397597
0002d0 62 ec b6 3e 36 d8 0f 3e 3f 24 af bd b9 00 70 be
       0.3572722 0.14047322 -0.08551835 -0.23437776
0002e0 a6 e1 8f 3d 77 fe fc 3d 39 ab 7a 3e 82 1b d9 bd
       0.07025461 0.12353223 0.24479379 -0.1060095
0002f0 d9 09 3d 3e 3d bc 1e bb 5c 99 13 be be 5d fe 3d
       0.18460788 -0.0024221085 -0.1441397 0.12420224
000300 32 5d 4a be b1 44 1b 3e 70 37 8c be 40 64 0d be
       -0.19762114 0.15162922 -0.27386045 -0.13807774
000310 a5 5f 71 3d 72 4f 80 bd 0d 6a f9 3d b3 a3 3c 3e
       0.058929104 -0.06265153 0.12178431 0.18421821
000320 49 fa 41 3e 70 c5 ce be 01 0c cd 3d 2a ca e5 bc
       0.18943132 -0.40385008 0.10012055 -0.0280505
000330 45 8a 88 bd 2c da 37 3b 83 50 7c be 74 28 a4 3d
       -0.06666998 0.0028053625 -0.24640088 0.08015528
000340 93 cc 84 3e 85 5a 2d be 06 22 0a 3e 4e f0 84 3e
       0.25937328 -0.16929062 0.13489541 0.25964588
000350 ca b6 a8 3e 81 10 b5 3d 13 43 0f be 68 9b cb bb
       0.32951957 0.088410385 -0.1399043 -0.006213594
000360 60 1c 4f bd c1 ca cf bd 8f e3 d6 bb 56 87 13 be
       -0.05056417 -0.10146094 -0.006557889 -0.14407095
000370 58 81 17 bd ee ff 1a bd f5 b0 78 be a6 37 de 3d
       -0.036988586 -0.03784173 -0.24286254 0.10850458
000380 54 04 a8 3d 39 1e 51 3d 4e c4 34 3e 6f 05 fb 3c
       0.082039505 0.051054213 0.1765301 0.03064224
000390 7d 50 80 3e fd 7c 07 be 8b 0d bc be e3 37 91 3d
       0.25061408 -0.13231273 -0.36729082 0.07090738
0003a0 3e 58 db bd 95 5a 5f 3d 9a ec 30 bd a1 6b 34 3c
       -0.1071019 0.054529745 -0.04319439 0.011011989
0003b0 23 8a 17 be b5 91 18 3e 32 2e 01 be 45 83 ff bc
       -0.14798789 0.14899333 -0.12615278 -0.031190524
0003c0 a7 5a 0e bd 1d 47 e3 bd d4 4a ee 3d e3 65 69 3e
       -0.03475442 -0.11097548 0.11635366 0.22792773
0003d0 79 5c d8 3e 38 df 74 3e bc a1 6d 3e 11 01 8b 3d
       0.4225805 0.23913276 0.23206228 0.06787313
0003e0 eb 62 78 3e 2b 9a 05 3e 4b f7 46 be 3e d7 8e 3d
       0.24256484 0.13047092 -0.19430272 0.06974648
0003f0 4a 0d ad bd e5 72 aa bd 22 56 7d 3d 5d 27 43 be
       -0.084498 -0.08322696 0.06184972 -0.19057985

mlp_extractor.value_net.0.bias f4 [64]
000000 7f 23 15 bc b4 03 c6 3c 66 34 cf 3c f2 2f c1 bc
       -0.009102701 0.024171688 0.02529354 -0.023582432
000010 5a a4 c6 3c 61 f3 cb bc 90 09 99 3c 9b 33 e4 3c
       0.02424829 -0.024896326 0.018681318 0.027856639
000020 bb 00 cb 3c e6 f0 ad bc e6 93 cc bc fc 30 cb 3c
       0.024780622 -0.021233033 -0.024972867 0.024803631
000030 21 75 ad 3b 69 8c f6 3c 4a 02 9e bc 78 6f 22 3c
       0.005293504 0.03009625 -0.0192882 0.0099142715
000040 97 b3 e3 bc d0 35 81 bc 34 b6 68 bc b9 72 c8 bc
       -0.027795596 -0.01577273 -0.014203597 -0.024468767
000050 37 8b 93 3c 99 a6 d3 3c 68 4d c7 3c 52 0d e1 bc
       0.018010719 0.025836276 0.024328902 -0.027472172
000060 62 d8 c2 bc be e0 f1 3c 0a b7 d2 bc ff f5 e0 3c
       -0.02378482 0.02952611 -0.025722045 0.02746105
000070 64 75 92 3c 1d 72 cb 3c 50 c0 de 3c ff 84 d1 bc
       0.017878242 0.024834687 0.027191311 -0.025576113
000080 c5 74 d9 3c 5f 57 93 bc 00 54 e1 3c b2 14 d1 bc
       0.026544938 -0.017985998 0.027505875 -0.025522564
000090 79 3a d1 3c 09 e9 34 3c a3 ee c4 bc b1 2e 75 bb
       0.025540577 0.011041888 -0.024039572 -0.0037411863
0000a0 d5 e1 85 3c 22 4f ca bc e4 d8 d5 bc 6a 0e c2 3c
       0.016343037 -0.024695937 -0.026104398 0.023688514
0000b0 84 a3 e6 3c b4 06 9e 3c 51 53 a5 bc 74 ce 56 bc
       0.028154142 0.019290306 -0.02018133 -0.013110746
0000c0 52 ec c1 bc dc ee c1 3c ae ed 6c 3c 3f 90 ee bc
       -0.023672257 0.023673467 0.014460964 -0.029121516
0000d0 4b 7d 13 3c de b7 9e bc 3f bd 99 bc 30 06 cc 3c
       0.00900204 -0.019374784 -0.018766997 0.024905294
0000e0 12 c9 ce 3c d5 6e 2d bc 3c ad cb 3c 53 95 1e 3c
       0.025242362 -0.010585506 0.024862878 0.009679156
0000f0 83 6f d3 bc e6 85 c9 3b fe 09 aa bc d8 b0 a3 3c
       -0.025810009 0.006149995 -0.020756718 0.019981787

mlp_extractor.value_net.2.weight f4 [64, 64]
000000 86 6a 17 3e b3 c2 54 3e 90 c9 69 3d 81 1a 27 be
       0.14786729 0.20777397 0.05707699 -0.16318704
000010 ca 29 99 be 31 6f ca 3d ba e1 85 3e 61 ef ca 3c
       -0.29914695 0.09884489 0.26148778 0.024772348
000020 9b 7a 1b 3e f6 c0 be 3c 8d 7a 2f be 04 93 e5 bb
       0.15183489 0.02328537 -0.17136593 -0.007006051
000030 95 d1 0a be b8 3c a1 3e 39 9b e0 bd 2b 81 0c 3e
       -0.13556512 0.31491637 -0.10967106 0.13721149
000040 7d 9a 59 be a4 5d d1 3d d0 fc e6 bd ee cb d3 3e
       -0.21250339 0.10222939 -0.11278689 0.41366524
000050 5d e4 a2 3e 14 15 71 be ef ad b9 bc be 5e a7 3c
       0.31814852 -0.23543197 -0.022665946 0.020430919
000060 1e d0 e9 3d 94 49 b5 bd 02 5f 3e bd 46 8c 43 be
       0.11416648 -0.088519245 -0.046477325 -0.19096479
000070 55 08 37 3e 1b c4 27 3d 56 86 f4 3d ee a0 e2 bd
       0.17874272 0.040958505 0.11939685 -0.11065851
000080 e7 78 40 be b5 21 47 3d 7b 65 b4 3e e6 20 09 be
       -0.1879612 0.04861613 0.35233673 -0.13391456
000090 79 d9 8e be 63 00 94 be 0e 50 72 be fa 82 61 3e
       -0.27900293 -0.28906545 -0.23663351 0.2202262
0000a0 8f 77 f7 bd 80 eb c3 bd 33 29 31 3d a0 b2 33 3d
       -0.12083351 -0.095664024 0.04325218 0.043871522
0000b0 bd e8 aa bd 7f 50 62 3d b4 2f 0d be 00 12 fd bc
       -0.083451726 0.05525255 -0.13787729 -0.030892372
0000c0 b8 96 03 3e 69 04 80 be aa d0 83 be 14 39 99 3e
       0.12850463 -0.25003365 -0.25745136 0.2992636
0000d0 81 f7 2d be 48 be 08 3d 58 14 d8 3d c5 2d d7 bd
       -0.16988946 0.03338459 0.10550755 -0.10506777
0000e0 d4 02 35 be 10 9e f2 bd 12 aa 2b 3e 65 a3 51 be
       -0.1767686 -0.11846554 0.16764095 -0.20472486
0000f0 f2 de b5 bd 09 eb 5e 3e 43 aa 4a be 83 83 ee 3c
       -0.08880414 0.21769346 -0.19791512 0.029115444
000100 a1 4b e4 3d 93 75 13 be 18 76 a5 3d 48 be c6 3a
       0.111472376 -0.1440032 0.08079165 0.0015162909
000110 02 4a 6e be 9e 7a 0b 3e 66 4e e8 3d d4 08 88 bc
       -0.23270419 0.13620993 0.11343078 -0.016605772
000120 23 c9 0e 3e b6 c0 3d 3e 75 f9 0b be ee 0d 7e bd
       0.13943915 0.18530545 -0.13669379 -0.062025003
000130 4c ea 9a be 53 b9 ea bd 18 8c c6 bd 7a 48 ea 3d
       -0.3025688 -0.11461129 -0.096946895 0.11439605
000140 32 28 c4 bd ab c9 dd bd 31 39 56 bd 02 a2 d3 be
       -0.09577979 -0.10829481 -0.052300636 -0.4133454
000150 17 ec ea 3d b7 ba 81 3c 0b 2e 0e bd 93 91 a4 bc
       0.11470812 0.015836103 -0.03471188 -0.020088946
000160 23 50 90 3e 2f d0 f2 3d 5a 29 05 bf 9d 06 b1 bd
       0.2818614 0.11856114 -0.5201622 -0.086438395
000170 70 25 99 be 4a 38 00 be ce 13 d6 3e 8e ca 89 3d
       -0.29911375 -0.12521473 0.41811985 0.06728087
000180 1b da 32 3e 88 5c af bd e4 87 a0 be 12 3d 87 3e
       0.17466013 -0.08562571 -0.31353676 0.2641378
000190 ae 8e 90 3d a0 0b 8d be 0c 9b 41 3e 2f d7 54 3e
       0.07058464 -0.27547932 0.18906802 0.20785211
0001a0 fa 40 6a 3e 8c 65 aa bd cc 09 4a 3e db 58 7d 3e
       0.22876349 -0.0832015 0.197303 0.24740927
0001b0 46 ba df bd 77 4f 13 bc 35 e9 03 3d e1 bc 94 3d
       -0.10924201 -0.008991114 0.032204825 0.07262588
0001c0 81 d7 b9 bd 86 da c4 bd 02 81 c3 bd 68 c5 16 3d
       -0.09074307 -0.096119925 -0.09546091 0.036809355
0001d0 fd 27 20 be fd 7d 39 3e 47 22 cb bd fb d4 f1 bd
       -0.15640254 0.18114467 -0.09918647 -0.11808201
0001e0 ae 63 3a bd 6f 55 d4 bc b2 9c 00 bd 3b 22 9c 3d
       -0.04550522 -0.025919644 -0.031399436 0.076237164
0001f0 3f bf 70 be 77 e3 56 be ce a1 41 3d 2b 9a a7 bc
       -0.23510455 -0.20985208 0.04727345 -0.020459255
000200 f7 a6 87 bd fe a8 6e be 5f 77 99 3e bb 15 47 be
       -0.06623643 -0.23306653 0.29973885 -0.19441883
000210 54 4f 3f be 93 43 80 bd 0d 10 1b be c1 89 cf 3e
       -0.18682605 -0.06262889 -0.15142842 0.40534785
000220 48 14 5e 3e 03 67 75 be f8 ef 62 be 65 8b 82 3e
       0.21687424 -0.23965077 -0.22161853 0.25496975
000230 fd 48 90 3e 2b 13 f3 3d 00 71 9b 3d b3 7a 17 be
       0.28180686 0.118688904 0.075899124 -0.147929
000240 f8 db bc 3d 8d 0a f7 3e 97 c4 23 be 74 67 96 bd
       0.09221643 0.48250237 -0.15992962 -0.07343951
000250 09 ca ba 3c 43 7c 4f 3e 80 7f c3 3d f7 a1 bd 3d
       0.022801416 0.20262246 0.09545803 0.09259408
000260 d7 a2 00 3e d4 15 c8 3d 62 b0 4d bd 48 71 85 3d
       0.12562118 0.097697884 -0.05021704 0.06515747
000270 15 e9 17 3e 6c ed 23 3d 3f 15 83 bd a0 fd 9c 3c
       0.14835007 0.040021345 -0.06400537 0.019163907
000280 af b7 ec bc ec 16 78 bd da e0 3e be 1f 87 ba bd
       -0.02889618 -0.060568735 -0.18640462 -0.091078036
000290 a0 3e 80 3e d1 2a a3 3d e7 3a 97 bd b5 e4 0a 3e
       0.2504778 0.07967151 -0.073842816 0.13563807
0002a0 b4 38 9a 3d f1 73 4b 3c 8c 26 c5 3e 0a a3 38 3e
       0.075303465 0.012417779 0.3850597 0.18030944
0002b0 81 eb 43 be 36 1c e1 be 9d 78 34 3d 42 ea 66 be
       -0.19132806 -0.43966836 0.04406034 -0.225503
0002c0 f2 07 d1 3c 42 91 72 bc 9f 04 01 3d 93 93 a2 3d
       0.025516484 -0.01480514 0.031498548 0.07938304
0002d0 ac 08 6e bc 98 af 10 bd 68 74 cf bc dd c8 25 3e
       -0.014528435 -0.03532371 -0.025324062 0.16189905
0002e0 1a ca 3f 3e 92 eb 85 be 3a f0 17 3e 60 30 72 be
       0.1872944 -0.26156288 0.14837733 -0.23651266
0002f0 a7 1b 4b 3e 12 25 a2 3d 26 a8 e6 3c 92 e0 46 3e
       0.19834767 0.07917227 0.028156351 0.19421604
000300 58 0d a3 3d 5b d4 fd 3d 46 73 08 be 78 4b 73 be
       0.079615295 0.12394019 -0.13325223 -0.23759258
000310 04 cf 71 3e 9e 0f fc bd 51 ea 37 3e e4 0e f6 bc
       0.23614126 -0.12307666 0.17960478 -0.030036397
000320 c1 32 9e be ff 97 ef 3d e5 2c 01 bc 3d 0d 4c 3d
       -0.30898097 0.11698913 -0.007884239 0.049817313
000330 5e d8 5f 3e 25 cf f0 bd c6 22 5e 3d f3 3e 0a be
       0.21859881 -0.1175826 0.05423238 -0.13500576
000340 42 0e 8f 3d 4c aa 07 bd aa 7e d0 bd b4 4b 9d 3c
       0.06985141 -0.033121392 -0.10180409 0.019201137
000350 d5 b7 bc 3d 20 fb cd be fc e7 ec bc 74 1a 37 3e
       0.09214751 -0.40230656 -0.028919213 0.17881185
000360 16 d7 59 be 55 99 6d be f9 d2 69 bd e0 56 5e 3e
       -0.21273455 -0.23203023 -0.057085965 0.21712828
000370 e2 8a c9 3d 4b bf 75 3e a2 ca 3d 3e 7f 01 c1 bc
       0.09840943 0.23998754 0.1853433 -0.023560284
000380 ce 15 90 3e 3f ca 68 be 40 60 1e be 94 cb ca bd
       0.28141636 -0.22733401 -0.15466404 -0.09902111
000390 ec bf c2 bd f4 da 81 3e 23 52 23 be ad a6 bc 3e
       -0.095092624 0.2536236 -0.15949301 0.36845914
0003a0 a7 2c 34 3e d5 76 de 3c 10 b8 d7 3d ec e2 8a 3e
       0.17595159 0.027156273 0.10533154 0.27126253
0003b0 ac 5f ce be 19 13 49 3d 44 a2 19 be 56 51 47 be
       -0.40307367 0.04909048 -0.15003306 -0.19464621
0003c0 87 86 93 3c 8f 62 9b bd 06 ec 05 3e df 2f cb bc
       0.018008484 -0.07587158 0.13078317 -0.0248031
0003d0 f5 df 80 3e 93 11 19 3d b5 d7 b9 bc 2b 6e 4d be
       0.25170866 0.037370276 -0.022685865 -0.20061557
0003e0 9d 40 bf bd 70 87 01 be 3e 23 c6 bd 50 1d 7a 3e
       -0.09338496 -0.12649322 -0.09674691 0.24425244
0003f0 34 23 65 be ed e4 86 3d fc f8 84 3e ed 94 11 3e
       -0.2237671 0.06586633 0.2597121 0.14216967

mlp_extractor.value_net.2.bias f4 [64]
000000 ed 9c cc 3c 34 02 a5 bc 39 fe bc 3c fb 80 b5 3c
       0.024977172 -0.020142652 0.023070442 0.02215623
000010 00 76 bf bc bf 09 bf bc 5e 79 bb bc 90 05 be 3c
       -0.023371696 -0.023320077 -0.02288502 0.023196012
000020 68 9c c5 bc b1 d4 ba 3c 1c f4 ba bc 03 e7 bd 3c
       -0.024122432 0.022806497 -0.022821479 0.023181444
000030 b8 52 b9 bb 92 28 b8 bc 28 31 ba 3c 90 34 bb bc
       -0.005655613 -0.022480283 0.022728518 -0.022852212
000040 81 dc ba 3c 07 3c c0 3c 9a 3f b0 bc 29 22 c6 bc
       0.022810223 0.023466123 -0.021514703 -0.02418621
000050 3a bd cc bc b5 5b b9 3c f2 05 b9 3c 75 5d bb bc
       -0.024992574 0.022626737 0.022585843 -0.022871712
000060 cb 9e bc bc 6b 71 bf 3c 7e 95 b7 bc db 6c b1 3c
       -0.023024937 0.023369512 -0.02241015 0.021658352
000070 e1 06 b6 3c bd 61 41 3c 41 12 c3 bc d3 a8 bf 3c
       0.022220077 0.011803088 -0.023812415 0.023395931
000080 c6 a9 9e bc 02 cc b8 3c 0c 91 ba bc 77 e8 c7 bc
       -0.019368064 0.022558216 -0.022774242 -0.02440284
000090 e5 40 b2 3c 69 c7 b8 bc 99 ca b9 bc 2d a0 4a 3c
       0.02175946 -0.022556024 -0.022679614 0.01236729
0000a0 75 b5 bc bc 87 16 be 3c 8a a2 bc bc 1e e2 c3 3c
       -0.023035744 0.023204101 -0.023026723 0.023911532
0000b0 0a a5 be bc 43 8f bf bc d4 67 bd 3c c9 6a 20 3c
       -0.023272056 -0.023383742 0.023120798 0.009791085
0000c0 aa 48 bb bc d9 50 d1 3c bf ec ba bc 52 64 aa 3c
       -0.022861797 0.025551246 -0.022817967 0.02079979
0000d0 f2 67 c1 bc 3a 59 b7 bc ab 17 b8 3c e6 ab b9 bc
       -0.023609135 -0.022381414 0.022472223 -0.022664975
0000e0 60 f3 b9 3c a3 b7 98 bc bf 74 c1 bc 82 e8 bb 3c
       0.022699058 -0.018642252 -0.02361524 0.022938017
0000f0 f6 a4 b8 3c a6 f4 cc bc c6 9d ba bc 39 92 ba 3c
       0.022539597 -0.025019001 -0.02278031 0.022774803

action_net.weight f4 [2, 64]
000000 5b eb e0 3b bd a7 56 bc ff 45 20 bc f5 de 10 3c
       0.006863994 -0.013101515 -0.009782313 0.00884222
000010 0b 08 cb ba ec a5 29 3c 4c 56 f6 bb 38 01 36 3c
       -0.0015490068 0.0103545 -0.0075176116 0.011108689
000020 c8 69 24 bb 53 5f c7 bb c4 31 b1 bc e8 eb 68 3c
       -0.0025087465 -0.0060843616 -0.021630175 0.014216401
000030 29 c4 47 bc 89 f8 1e bc cd 61 24 3c f6 ed 5d bb
       -0.012192764 -0.00970281 0.010033083 -0.003386376
000040 79 c7 d5 3b e6 d3 95 3c 6a d2 22 bc ca a3 a5 bb
       0.006524023 0.018289518 -0.009937862 -0.0050549256
000050 e5 1f 5a bb ce 96 b9 3b 44 11 ad 3b c9 d8 df 3b
       -0.003328317 0.0056637293 0.0052815992 0.0068312627
000060 ac 8f ab ba 51 9a 1e bc df 5d 69 bc 96 00 13 bc
       -0.0013089082 -0.009680347 -0.014243572 -0.008972308
000070 2b f1 ed ba c4 f6 40 bc 1c ca 47 bc e1 ae df bb
       -0.0018153539 -0.0117775835 -0.012194183 -0.006826267
000080 31 a6 1c bc 9d 02 3f bb 00 6d 04 3c 20 14 fa bb
       -0.0095611075 -0.0029145845 0.008082628 -0.0076317936
000090 fa 54 8f bc 51 28 45 3c 82 5d 1f 3c 43 62 12 3c
       -0.017496575 0.012033538 0.009726884 0.00893456
0000a0 cd 51 40 3c 19 ed d4 bb 5a 72 a4 bb a1 8a 9c 3b
       0.011738253 -0.006497991 -0.0050185146 0.004777268
0000b0 ff af 22 bc 3e 44 67 bc dd 61 73 bc 7a 49 33 bc
       -0.009929656 -0.014115391 -0.014854875 -0.010942811
0000c0 ec da 5e bc 3e 28 c5 3b 5c c0 5e 3c fe 23 04 3c
       -0.013602 0.00601676 0.013595667 0.008065222
0000d0 4a fe 1e 3a 67 dd 93 bc 04 35 d6 3b 16 7c 3a bc
       0.00060651137 -0.018049909 0.0065370817 -0.011382123
0000e0 3c 5f c6 3b 76 6f d8 3b 4c a3 98 bb 9b df 83 3b
       0.0060538333 0.006605084 -0.0046581384 0.0040244586
0000f0 c9 6d 60 3c f1 06 8f bb a6 49 61 ba fb b3 6f 3c
       0.01369805 -0.004364841 -0.00085940433 0.014630313
000100 d0 7e 11 bc 85 47 90 bc 37 1d c1 3b 0b bf 87 bc
       -0.008880332 -0.017612228 0.0058933753 -0.016570589
000110 9a 3c b9 ba ba 35 79 3c 2f a8 4d bc 27 80 10 3c
       -0.001413244 0.015210563 -0.012552305 0.008819616
000120 54 02 33 3c 46 f1 06 b9 4d bc 52 bb 95 d7 7d 3c
       0.010925848 -0.00012869117 -0.0032155693 0.015493293
000130 ac 42 8e bc 1f 7b 3a 3c b7 bb 8a bb 37 51 57 3c
       -0.017365776 0.011381893 -0.004233803 0.013141922
000140 36 df 85 3b b0 cc 95 3b 9b b4 be 3b f1 14 98 bc
       0.0040854467 0.00457152 0.0058198697 -0.018564673
000150 73 90 a9 3b 52 1e 6f 3b b1 c1 4d 3c 62 df a9 39
       0.0051746904 0.0036486578 0.012558387 0.00032400625
000160 45 f8 1e 3b 30 2d 26 bb cb 61 7d 3b 53 d9 a3 3b
       0.0024256867 -0.0025356524 0.0038663025 0.0050002723
000170 fd 3f 55 bc 1b b9 1e bc 45 50 6f bc 0d 93 ed bb
       -0.013015744 -0.009687687 -0.01460654 -0.007250196
000180 0b 78 01 3c 53 da a4 bb 9d 06 87 3c ca 23 b3 bb
       0.007902156 -0.005030909 0.016482646 -0.005466913
000190 3d de 7a 3b 0b 31 5a 3c bc 53 89 3c 6a 5b 63 3c
       0.0038279437 0.013317357 0.01676356 0.013876775
0001a0 22 b8 69 bb e8 08 46 bc 7c 24 12 3c 08 2b 27 3c
       -0.003566273 -0.012087084 0.008919831 0.010203131
0001b0 05 91 34 3c 82 39 5a bc d3 98 9b 3b 2e 7b 4c 3b
       0.0110209035 -0.013319375 0.0047484427 0.003120135
0001c0 eb 0c 8b bc 64 14 cc ba 05 5d 0d 3c 87 54 9c 3c
       -0.016973933 -0.0015570042 0.008628135 0.019083275
0001d0 19 c3 2e 3c 14 ca 2b 3c 27 c2 84 3c b2 da 69 bc
       0.010666632 0.010485191 0.01620586 -0.014273332
0001e0 a9 85 13 3c a0 82 27 3c 18 a5 81 bc 8f 75 47 3c
       0.009004035 0.0102240145 -0.015825793 0.012174024
0001f0 ba 2c f1 bb 36 86 7c bc 6c 9b 76 bc 73 b9 10 bc
       -0.007360068 -0.015412858 -0.015051704 -0.008833277

action_net.bias f4 [2]
000000 5f 0c dc bb b3 04 1c bc
       -0.006715342 -0.009522605

value_net.weight f4 [1, 64]
000000 7a e9 9e bc e4 e2 8a 3c 4e 19 25 be 34 1a bf bd
       -0.01939844 0.016953893 -0.16122934 -0.0933117
000010 8a 56 b0 3d 6b f3 f9 3d 44 79 4c 3e d5 af e9 bd
       0.08610256 0.122046314 0.19968134 -0.114104904
000020 0d b5 89 3d 17 fc 74 be 76 72 37 3e f9 4f b3 bd
       0.06723986 -0.2392429 0.17914757 -0.08755488
000030 05 33 01 bc b8 5d df 3d dd c6 d6 bd df 12 1a 3e
       -0.007885699 0.10906547 -0.10487149 0.15046261
000040 a9 04 16 be 83 03 85 bd 1c c2 10 3d 56 f9 85 3d
       -0.14650215 -0.064948104 0.035341367 0.06541698
000050 bb 0b 51 3d 5b 6d 55 be 59 44 e1 bd 9a e2 29 3e
       0.051036578 -0.20842497 -0.109993644 0.16590348
000060 e7 f4 82 3d 60 b8 a3 bd b7 36 9b 3d 6d 93 3d bd
       0.06394368 -0.07994151 0.075787954 -0.046283174
000070 7c c7 b6 be 21 cd b6 3b db fd a0 3d 75 b4 8d bd
       -0.3569907 0.0055786525 0.07860919 -0.06919185
000080 24 b9 1f 3c d5 b0 3e be aa 14 b3 3d 81 67 6b 3d
       0.009748731 -0.18622144 0.08744176 0.057471756
000090 25 31 19 bd ab 48 5b 3e 23 e6 47 3e a7 3b f1 3a
       -0.037400384 0.2141444 0.19521384 0.0018404619
0000a0 85 83 0f 3e 2a f8 f2 bd 0c 94 04 3e d3 10 0c bd
       0.14015014 -0.1186374 0.129471 -0.034195732
0000b0 51 c2 eb 3d 14 c8 d2 3d bf 9a 15 be e0 da ff 3b
       0.11511672 0.10292068 -0.14609812 0.0078080744
0000c0 df 00 2b 3e fc 01 0f bd 4d 9d 1a 3e 89 ed b8 bc
       0.16699551 -0.034914 0.15099068 -0.022574203
0000d0 c7 b0 9a 3d 64 95 0b 3e 93 ed 1a be 7b 57 21 3e
       0.07553249 0.13631207 -0.1512969 0.15756027
0000e0 ef 31 6a be e7 5f e4 3b 8e fd b5 3d 00 cf 35 be
       -0.2287061 0.0069694403 0.08886252 -0.17754745
0000f0 49 c0 bb be 3f bf 3a 3d f8 75 8f 3e 9c a6 2c be
       -0.3667014 0.045592543 0.2801969 -0.16860431
